…
"dxJYzY4RPIyN","executionInfo":{"status":"ok","timestamp":1678709055196,"user_tz":-180,"elapsed":490,"user":{"displayName":"Глеб Колонин","userId":"16800121630135430864"}},"outputId":"749a02b4-b0ae-41d9-df98-7c01bb6b2af0"},"source":["model.summary()"],"execution_count":null,"outputs":[{"output_type":"stream","name":"stdout","text":["Model: \"sequential\"\n","_________________________________________________________________\n"," Layer (type)                Output Shape              Param #   \n","=================================================================\n"," bn1 (BatchNormalization)    (None, 32, 32, 3)         12        \n","                                                                 \n"," Conv2D-layer1 (Conv2D)      (None, 32, 32, 32)        896       \n","                                                                 \n"," Conv2D-layer2 (Conv2D)      (None, 32, 32, 32)        9248      \n","                                                                 \n"," mp2D-layer1 (MaxPooling2D)  (None, 16, 16, 32)        0         \n","                                                                 \n"," Dropout-layer1 (Dropout)    (None, 16, 16, 32)        0         \n","                                                                 \n"," bn2 (BatchNormalization)    (None, 16, 16, 32)        128       \n","                                                                 \n"," Conv2D-layer3 (Conv2D)      (None, 16, 16, 64)        18496     \n","                                                                 \n"," Conv2D-layer4 (Conv2D)      (None, 16, 16, 64)        36928     \n","                                                                 \n"," mp2D-layer2 (MaxPooling2D)  (None, 8, 8, 64)          0         \n","                                                                 \n"," Dropout-layer2 (Dropout)    (None, 8, 8, 64)          0         \n","                                                                 \n"," bn3 (BatchNormalization)    (None, 8, 8, 64)          256       \n","                                                                 \n"," Conv2D-layer5 (Conv2D)      (None, 8, 8, 128)         73856     \n","                                                                 \n"," Conv2D-layer6 (Conv2D)      (None, 8, 8, 128)         147584    \n","                                                                 \n"," mp2D-layer3 (MaxPooling2D)  (None, 4, 4, 128)         0         \n","                                                                 \n"," Dropout-layer3 (Dropout)    (None, 4, 4, 128)         0         \n","                                                                 \n"," flatten (Flatten)           (None, 2048)              0         \n","                                                                 \n"," labels (Dense)              (None, 10)                20490     \n","                                                                 \n","=================================================================\n","Total params: 307,894\n","Trainable params: 307,696\n","Non-trainable params: 198\n","_________________________________________________________________\n"]}]},{"cell_type":"code","metadata":{"colab":{"base_uri":"https://localhost:8080/","height":629}
…
