…
sv_s=0.7, hsv_v=0.4, degrees=0.0, translate=0.1, scale=0.5, shear=0.0, perspective=0.0, flipud=0.0, fliplr=0.5, mosaic=1.0, mixup=0.0, copy_paste=0.0, cfg=None, v5loader=False, tracker=botsort.yaml, save_dir=runs/detect/yolov8\n","Downloading https://ultralytics.com/assets/Arial.ttf to /root/.config/Ultralytics/Arial.ttf...\n","100%|██████████| 755k/755k [00:00<00:00, 22.6MB/s]\n","Overriding model.yaml nc=80 with nc=3\n","\n","                   from  n    params  module                                       arguments                     \n","  0                  -1  1      1392  ultralytics.nn.modules.Conv                  [3, 48, 3, 2]                 \n","  1                  -1  1     41664  ultralytics.nn.modules.Conv                  [48, 96, 3, 2]                \n","  2                  -1  2    111360  ultralytics.nn.modules.C2f                   [96, 96, 2, True]             \n","  3                  -1  1    166272  ultralytics.nn.modules.Conv                  [96, 192, 3, 2]               \n","  4                  -1  4    813312  ultralytics.nn.modules.C2f                   [192, 192, 4, True]           \n","  5                  -1  1    664320  ultralytics.nn.modules.Conv                  [192, 384, 3, 2]              \n","  6                  -1  4   3248640  ultralytics.nn.modules.C2f                   [384, 384, 4, True]           \n","  7                  -1  1   1991808  ultralytics.nn.modules.Conv                  [384, 576, 3, 2]              \n","  8                  -1  2   3985920  ultralytics.nn.modules.C2f                   [576, 576, 2, True]           \n","  9                  -1  1    831168  ultralytics.nn.modules.SPPF                  [576, 576, 5]                 \n"," 10                  -1  1         0  torch.nn.modules.upsampling.Upsample         [None, 2, 'nearest']          \n"," 11             [-1, 6]  1         0  ultralytics.nn.modules.Concat                [1]                           \n"," 12                  -1  2   1993728  ultralytics.nn.modules.C2f                   [960, 384, 2]                 \n"," 13                  -1  1         0  torch.nn.modules.upsampling.Upsample         [None, 2, 'nearest']          \n"," 14             [-1, 4]  1         0  ultralytics.nn.modules.Concat                [1]                           \n"," 15                  -1  2    517632  ultralytics.nn.modules.C2f                   [576, 192, 2]                 \n"," 16                  -1  1    332160  ultralytics.nn.modules.Conv                  [192, 192, 3, 2]              \n"," 17            [-1, 12]  1         0  ultralytics.nn.modules.Concat                [1]                           \n"," 18                  -1  2   1846272  ultralytics.nn.modules.C2f                   [576, 384, 2]                 \n"," 19                  -1  1   1327872  ultralytics.nn.modules.Conv                  [384, 384, 3, 2]              \n"," 20             [-1, 9]  1         0  ultralytics.nn.modules.Concat                [1]                           \n"," 21                  -1  2   4207104  ultralytics.nn.modules.C2f                   [960, 576, 2]                 \n"," 22        [15, 18, 21]  1   3777433  ultralytics.nn.modules.Detect                [3, [192, 384, 576]]          \n","Model summary: 295 layers, 25858057 parameters, 25858041 gradients, 79.1 GFLOPs\n","\n","Transferred 469/475 items from pretrained weights\n","\u001b[34m\u001b[1mTensorBoard: \u001b[0mStart with 'tensorboard --logdir runs/detect/yolov8', view at http://localhost:6006/\n","\u001b[34m\u001b[1mAMP: \u001b[0mrunning Automatic Mixed Precision (AMP) checks with YOLOv8n.
…
